…
output:  [-0.38813382 -0.28392407] labels:  1.0
output:  [-7.9527354 13.166666 ] labels:  0.0
output:  1 labels:  0.0
output:  1 labels:  0.0
output:  1 labels:  0.0
output:  1 labels:  1.0
output:  1 labels:  0.0
output:  1 labels:  1.0
output:  1 labels:  0.0
output:  1 labels:  0.0
output:  1 labels:  0.0
output:  1 labels:  1.0
(15000, 50, 50, 3)
(15000, 50, 50, 3)
Running on the GPU
----------------------------------------------------------------
        Layer (type)               Output Shape         Param #
================================================================
            Conv2d-1           [-1, 16, 48, 48]             448
            Conv2d-2           [-1, 64, 22, 22]           9,280
            Conv2d-3            [-1, 256, 9, 9]         147,712
            Linear-4                  [-1, 128]         295,040
           Dropout-5                  [-1, 128]               0
            Linear-6                    [-1, 2]             258
================================================================
Total params: 452,738
Trainable params: 452,738
Non-trainable params: 0
----------------------------------------------------------------
Input size (MB): 0.03
Forward/backward pass size (MB): 0.68
Params size (MB): 1.73
Estimated Total Size (MB): 2.43
----------------------------------------------------------------