…
c:\Users\47472\Documents\Skole\Hvl\s6\dat191\Bachelor\Code\src\trainers.py:168: SyntaxWarning: "is" with a literal. Did you mean "=="?
  if config.optimizer is 'adam':
c:\Users\47472\Documents\Skole\Hvl\s6\dat191\Bachelor\Code\src\trainers.py:168: SyntaxWarning: "is" with a literal. Did you mean "=="?
  if config.optimizer is 'adam':
(15000, 50, 50, 3)
(15000, 50, 50, 3)
Running on the CPU
----------------------------------------------------------------
        Layer (type)               Output Shape         Param #
================================================================
            Conv2d-1           [-1, 16, 48, 48]             448
            Conv2d-2           [-1, 64, 22, 22]           9,280
            Conv2d-3            [-1, 256, 9, 9]         147,712
            Linear-4                  [-1, 128]         295,040
           Dropout-5                  [-1, 128]               0
            Linear-6                    [-1, 2]             258
================================================================
Total params: 452,738
Trainable params: 452,738
Non-trainable params: 0
----------------------------------------------------------------
Input size (MB): 0.03
Forward/backward pass size (MB): 0.68
Params size (MB): 1.73
Estimated Total Size (MB): 2.43
----------------------------------------------------------------