ConvModel(
  (conv1): Conv2d(3, 16, kernel_size=(3, 3), stride=(1, 1))
  (conv2): Conv2d(16, 64, kernel_size=(3, 3), stride=(1, 1))
  (fc1): Linear(in_features=7744, out_features=128, bias=True)
  (fc2): Linear(in_features=128, out_features=2, bias=True)
)
ConvModel(
  (conv1): Conv2d(3, 16, kernel_size=(3, 3), stride=(1, 1))
  (conv2): Conv2d(16, 64, kernel_size=(3, 3), stride=(1, 1))
  (fc1): Linear(in_features=7744, out_features=128, bias=True)
  (fc2): Linear(in_features=128, out_features=2, bias=True)
)
ConvModel(
  (conv1): Conv2d(3, 16, kernel_size=(3, 3), stride=(1, 1))
  (conv2): Conv2d(16, 64, kernel_size=(3, 3), stride=(1, 1))
  (fc1): Linear(in_features=7744, out_features=128, bias=True)
  (fc2): Linear(in_features=128, out_features=2, bias=True)
)
ConvModel(
  (conv1): Conv2d(3, 16, kernel_size=(3, 3), stride=(1, 1))
  (conv2): Conv2d(16, 64, kernel_size=(3, 3), stride=(1, 1))
  (fc1): Linear(in_features=7744, out_features=128, bias=True)
  (fc2): Linear(in_features=128, out_features=2, bias=True)
)
ConvModel(
  (conv1): Conv2d(3, 16, kernel_size=(3, 3), stride=(1, 1))
  (conv2): Conv2d(16, 64, kernel_size=(3, 3), stride=(1, 1))
  (fc1): Linear(in_features=7744, out_features=128, bias=True)
  (fc2): Linear(in_features=128, out_features=2, bias=True)
)
ConvModel(
  (conv1): Conv2d(3, 16, kernel_size=(3, 3), stride=(1, 1))
  (conv2): Conv2d(16, 64, kernel_size=(3, 3), stride=(1, 1))
  (fc1): Linear(in_features=7744, out_features=128, bias=True)
  (fc2): Linear(in_features=128, out_features=2, bias=True)
)
ConvModel(
  (conv1): Conv2d(3, 16, kernel_size=(3, 3), stride=(1, 1))
  (conv2): Conv2d(16, 64, kernel_size=(3, 3), stride=(1, 1))
  (fc1): Linear(in_features=7744, out_features=128, bias=True)
  (fc2): Linear(in_features=128, out_features=2, bias=True)
)
ConvModel(
  (conv1): Conv2d(3, 16, kernel_size=(3, 3), stride=(1, 1))
  (conv2): Conv2d(16, 64, kernel_size=(3, 3), stride=(1, 1))
  (fc1): Linear(in_features=7744, out_features=128, bias=True)
  (fc2): Linear(in_features=128, out_features=2, bias=True)
)
ConvModel(
  (conv1): Conv2d(3, 16, kernel_size=(3, 3), stride=(1, 1))
  (conv2): Conv2d(16, 64, kernel_size=(3, 3), stride=(1, 1))
  (fc1): Linear(in_features=7744, out_features=128, bias=True)
  (fc2): Linear(in_features=128, out_features=2, bias=True)
)
ConvModel(
  (conv1): Conv2d(3, 16, kernel_size=(3, 3), stride=(1, 1))
  (conv2): Conv2d(16, 64, kernel_size=(3, 3), stride=(1, 1))
  (fc1): Linear(in_features=7744, out_features=128, bias=True)
  (fc2): Linear(in_features=128, out_features=2, bias=True)
)
ConvModel(
  (conv1): Conv2d(3, 16, kernel_size=(3, 3), stride=(1, 1))
  (conv2): Conv2d(16, 64, kernel_size=(3, 3), stride=(1, 1))
  (fc1): Linear(in_features=7744, out_features=128, bias=True)
  (fc2): Linear(in_features=128, out_features=2, bias=True)
)
ConvModel(
  (conv1): Conv2d(3, 16, kernel_size=(3, 3), stride=(1, 1))
  (conv2): Conv2d(16, 64, kernel_size=(3, 3), stride=(1, 1))
  (fc1): Linear(in_features=7744, out_features=128, bias=True)
  (fc2): Linear(in_features=128, out_features=2, bias=True)
)
ConvModel(
  (conv1): Conv2d(3, 16, kernel_size=(3, 3), stride=(1, 1))
  (conv2): Conv2d(16, 64, kernel_size=(3, 3), stride=(1, 1))
  (fc1): Linear(in_features=7744, out_features=128, bias=True)
  (fc2): Linear(in_features=128, out_features=2, bias=True)
)
ConvModel(
  (conv1): Conv2d(3, 16, kernel_size=(3, 3), stride=(1, 1))
  (conv2): Conv2d(16, 64, kernel_size=(3, 3), stride=(1, 1))
  (fc1): Linear(in_features=7744, out_features=128, bias=True)
  (fc2): Linear(in_features=128, out_features=2, bias=True)
)
ConvModel(
  (conv1): Conv2d(3, 16, kernel_size=(3, 3), stride=(1, 1))
  (conv2): Conv2d(16, 64, kernel_size=(3, 3), stride=(1, 1))
  (fc1): Linear(in_features=7744, out_features=128, bias=True)
  (fc2): Linear(in_features=128, out_features=2, bias=True)
)
ConvModel(
  (conv1): Conv2d(3, 16, kernel_size=(3, 3), stride=(1, 1))
  (conv2): Conv2d(16, 64, kernel_size=(3, 3), stride=(1, 1))
  (fc1): Linear(in_features=7744, out_features=128, bias=True)
  (fc2): Linear(in_features=128, out_features=2, bias=True)
)
ConvModel(
  (conv1): Conv2d(3, 16, kernel_size=(3, 3), stride=(1, 1))
  (conv2): Conv2d(16, 64, kernel_size=(3, 3), stride=(1, 1))
  (fc1): Linear(in_features=7744, out_features=128, bias=True)
  (fc2): Linear(in_features=128, out_features=2, bias=True)
)
ConvModel(
  (conv1): Conv2d(3, 16, kernel_size=(3, 3), stride=(1, 1))
  (conv2): Conv2d(16, 64, kernel_size=(3, 3), stride=(1, 1))
  (fc1): Linear(in_features=7744, out_features=128, bias=True)
  (fc2): Linear(in_features=128, out_features=2, bias=True)
)
ConvModel(
  (conv1): Conv2d(3, 16, kernel_size=(3, 3), stride=(1, 1))
  (conv2): Conv2d(16, 64, kernel_size=(3, 3), stride=(1, 1))
  (fc1): Linear(in_features=7744, out_features=128, bias=True)
  (fc2): Linear(in_features=128, out_features=2, bias=True)
)
ConvModel(
  (conv1): Conv2d(3, 16, kernel_size=(3, 3), stride=(1, 1))
  (conv2): Conv2d(16, 64, kernel_size=(3, 3), stride=(1, 1))
  (fc1): Linear(in_features=7744, out_features=128, bias=True)
  (fc2): Linear(in_features=128, out_features=2, bias=True)
)
ConvModel(
  (conv1): Conv2d(3, 16, kernel_size=(3, 3), stride=(1, 1))
  (conv2): Conv2d(16, 64, kernel_size=(3, 3), stride=(1, 1))
  (fc1): Linear(in_features=7744, out_features=128, bias=True)
  (fc2): Linear(in_features=128, out_features=2, bias=True)
)
ConvModel(
  (conv1): Conv2d(3, 16, kernel_size=(3, 3), stride=(1, 1))
  (conv2): Conv2d(16, 64, kernel_size=(3, 3), stride=(1, 1))
  (fc1): Linear(in_features=7744, out_features=128, bias=True)
  (fc2): Linear(in_features=128, out_features=2, bias=True)
)
ConvModel(
  (conv1): Conv2d(3, 16, kernel_size=(3, 3), stride=(1, 1))
  (conv2): Conv2d(16, 64, kernel_size=(3, 3), stride=(1, 1))
  (fc1): Linear(in_features=7744, out_features=128, bias=True)
  (fc2): Linear(in_features=128, out_features=2, bias=True)
)
ConvModel(
  (conv1): Conv2d(3, 16, kernel_size=(3, 3), stride=(1, 1))
  (conv2): Conv2d(16, 64, kernel_size=(3, 3), stride=(1, 1))
  (fc1): Linear(in_features=7744, out_features=128, bias=True)
  (fc2): Linear(in_features=128, out_features=2, bias=True)
)
ConvModel(
  (conv1): Conv2d(3, 16, kernel_size=(3, 3), stride=(1, 1))
  (conv2): Conv2d(16, 64, kernel_size=(3, 3), stride=(1, 1))
  (fc1): Linear(in_features=7744, out_features=128, bias=True)
  (fc2): Linear(in_features=128, out_features=2, bias=True)
)
ConvModel(
  (conv1): Conv2d(3, 16, kernel_size=(3, 3), stride=(1, 1))
  (conv2): Conv2d(16, 64, kernel_size=(3, 3), stride=(1, 1))
  (fc1): Linear(in_features=7744, out_features=128, bias=True)
  (fc2): Linear(in_features=128, out_features=2, bias=True)
)
ConvModel(
  (conv1): Conv2d(3, 16, kernel_size=(3, 3), stride=(1, 1))
  (conv2): Conv2d(16, 64, kernel_size=(3, 3), stride=(1, 1))
  (fc1): Linear(in_features=7744, out_features=128, bias=True)
  (fc2): Linear(in_features=128, out_features=2, bias=True)
)
ConvModel(
  (conv1): Conv2d(3, 16, kernel_size=(3, 3), stride=(1, 1))
  (conv2): Conv2d(16, 64, kernel_size=(3, 3), stride=(1, 1))
  (fc1): Linear(in_features=7744, out_features=128, bias=True)
  (fc2): Linear(in_features=128, out_features=2, bias=True)
)
ConvModel(
  (conv1): Conv2d(3, 16, kernel_size=(3, 3), stride=(1, 1))
  (conv2): Conv2d(16, 64, kernel_size=(3, 3), stride=(1, 1))
  (fc1): Linear(in_features=7744, out_features=128, bias=True)
  (fc2): Linear(in_features=128, out_features=2, bias=True)
)
ConvModel(
  (conv1): Conv2d(3, 16, kernel_size=(3, 3), stride=(1, 1))
  (conv2): Conv2d(16, 64, kernel_size=(3, 3), stride=(1, 1))
  (fc1): Linear(in_features=7744, out_features=128, bias=True)
  (fc2): Linear(in_features=128, out_features=2, bias=True)
)
ConvModel(
  (conv1): Conv2d(3, 16, kernel_size=(3, 3), stride=(1, 1))
  (conv2): Conv2d(16, 64, kernel_size=(3, 3), stride=(1, 1))
  (fc1): Linear(in_features=7744, out_features=128, bias=True)
  (fc2): Linear(in_features=128, out_features=2, bias=True)
)
ConvModel(
  (conv1): Conv2d(3, 16, kernel_size=(3, 3), stride=(1, 1))
  (conv2): Conv2d(16, 64, kernel_size=(3, 3), stride=(1, 1))
  (fc1): Linear(in_features=7744, out_features=128, bias=True)
  (fc2): Linear(in_features=128, out_features=2, bias=True)
)
ConvModel(
  (conv1): Conv2d(3, 16, kernel_size=(3, 3), stride=(1, 1))
  (conv2): Conv2d(16, 64, kernel_size=(3, 3), stride=(1, 1))
  (fc1): Linear(in_features=7744, out_features=128, bias=True)
  (fc2): Linear(in_features=128, out_features=2, bias=True)
)
ConvModel(
  (conv1): Conv2d(3, 16, kernel_size=(3, 3), stride=(1, 1))
  (conv2): Conv2d(16, 64, kernel_size=(3, 3), stride=(1, 1))
  (fc1): Linear(in_features=7744, out_features=128, bias=True)
  (fc2): Linear(in_features=128, out_features=2, bias=True)
)
ConvModel(
  (conv1): Conv2d(3, 16, kernel_size=(3, 3), stride=(1, 1))
  (conv2): Conv2d(16, 64, kernel_size=(3, 3), stride=(1, 1))
  (fc1): Linear(in_features=7744, out_features=128, bias=True)
  (fc2): Linear(in_features=128, out_features=2, bias=True)
)
ConvModel(
  (conv1): Conv2d(3, 16, kernel_size=(3, 3), stride=(1, 1))
  (conv2): Conv2d(16, 64, kernel_size=(3, 3), stride=(1, 1))
  (fc1): Linear(in_features=7744, out_features=128, bias=True)
  (fc2): Linear(in_features=128, out_features=2, bias=True)
)
ConvModel(
  (conv1): Conv2d(3, 16, kernel_size=(3, 3), stride=(1, 1))
  (conv2): Conv2d(16, 64, kernel_size=(3, 3), stride=(1, 1))
  (fc1): Linear(in_features=7744, out_features=128, bias=True)
  (fc2): Linear(in_features=128, out_features=2, bias=True)
)
ConvModel(
  (conv1): Conv2d(3, 16, kernel_size=(3, 3), stride=(1, 1))
  (conv2): Conv2d(16, 64, kernel_size=(3, 3), stride=(1, 1))
  (fc1): Linear(in_features=7744, out_features=128, bias=True)
  (fc2): Linear(in_features=128, out_features=2, bias=True)
)
ConvModel(
  (conv1): Conv2d(3, 16, kernel_size=(3, 3), stride=(1, 1))
  (conv2): Conv2d(16, 64, kernel_size=(3, 3), stride=(1, 1))
  (fc1): Linear(in_features=7744, out_features=128, bias=True)
  (fc2): Linear(in_features=128, out_features=2, bias=True)
)
ConvModel(
  (conv1): Conv2d(3, 16, kernel_size=(3, 3), stride=(1, 1))
  (conv2): Conv2d(16, 64, kernel_size=(3, 3), stride=(1, 1))
  (fc1): Linear(in_features=7744, out_features=128, bias=True)
  (fc2): Linear(in_features=128, out_features=2, bias=True)
)
ConvModel(
  (conv1): Conv2d(3, 16, kernel_size=(3, 3), stride=(1, 1))
  (conv2): Conv2d(16, 64, kernel_size=(3, 3), stride=(1, 1))
  (fc1): Linear(in_features=7744, out_features=128, bias=True)
  (fc2): Linear(in_features=128, out_features=2, bias=True)
)
ConvModel(
  (conv1): Conv2d(3, 16, kernel_size=(3, 3), stride=(1, 1))
  (conv2): Conv2d(16, 64, kernel_size=(3, 3), stride=(1, 1))
  (fc1): Linear(in_features=7744, out_features=128, bias=True)
  (fc2): Linear(in_features=128, out_features=2, bias=True)
)
ConvModel(
  (conv1): Conv2d(3, 16, kernel_size=(3, 3), stride=(1, 1))
  (conv2): Conv2d(16, 64, kernel_size=(3, 3), stride=(1, 1))
  (fc1): Linear(in_features=7744, out_features=128, bias=True)
  (fc2): Linear(in_features=128, out_features=2, bias=True)
)
ConvModel(
  (conv1): Conv2d(3, 16, kernel_size=(3, 3), stride=(1, 1))
  (conv2): Conv2d(16, 64, kernel_size=(3, 3), stride=(1, 1))
  (fc1): Linear(in_features=7744, out_features=128, bias=True)
  (fc2): Linear(in_features=128, out_features=2, bias=True)
)
ConvModel(
  (conv1): Conv2d(3, 16, kernel_size=(3, 3), stride=(1, 1))
  (conv2): Conv2d(16, 64, kernel_size=(3, 3), stride=(1, 1))
  (fc1): Linear(in_features=7744, out_features=128, bias=True)
  (fc2): Linear(in_features=128, out_features=2, bias=True)
)
ConvModel(
  (conv1): Conv2d(3, 16, kernel_size=(3, 3), stride=(1, 1))
  (conv2): Conv2d(16, 64, kernel_size=(3, 3), stride=(1, 1))
  (fc1): Linear(in_features=7744, out_features=128, bias=True)
  (fc2): Linear(in_features=128, out_features=2, bias=True)
)
ConvModel(
  (conv1): Conv2d(3, 16, kernel_size=(3, 3), stride=(1, 1))
  (conv2): Conv2d(16, 64, kernel_size=(3, 3), stride=(1, 1))
  (fc1): Linear(in_features=7744, out_features=128, bias=True)
  (fc2): Linear(in_features=128, out_features=2, bias=True)
)
ConvModel(
  (conv1): Conv2d(3, 16, kernel_size=(3, 3), stride=(1, 1))
  (conv2): Conv2d(16, 64, kernel_size=(3, 3), stride=(1, 1))
  (fc1): Linear(in_features=7744, out_features=128, bias=True)
  (fc2): Linear(in_features=128, out_features=2, bias=True)
)
ConvModel(
  (conv1): Conv2d(3, 16, kernel_size=(3, 3), stride=(1, 1))
  (conv2): Conv2d(16, 64, kernel_size=(3, 3), stride=(1, 1))
  (fc1): Linear(in_features=7744, out_features=128, bias=True)
  (fc2): Linear(in_features=128, out_features=2, bias=True)
)
ConvModel(
  (conv1): Conv2d(3, 16, kernel_size=(3, 3), stride=(1, 1))
  (conv2): Conv2d(16, 64, kernel_size=(3, 3), stride=(1, 1))
  (fc1): Linear(in_features=7744, out_features=128, bias=True)
  (fc2): Linear(in_features=128, out_features=2, bias=True)
)