(15000, 50, 50, 3)
(15000, 50, 50, 3)
Running on the GPU
----------------------------------------------------------------
        Layer (type)               Output Shape         Param #
================================================================
            Conv2d-1           [-1, 16, 48, 48]             448
            Conv2d-2           [-1, 64, 22, 22]           9,280
            Conv2d-3            [-1, 256, 9, 9]         147,712
            Linear-4                 [-1, 1000]       2,305,000
           Dropout-5                 [-1, 1000]               0
            Linear-6                    [-1, 2]           2,002
================================================================
Total params: 2,464,442
Trainable params: 2,464,442
Non-trainable params: 0
----------------------------------------------------------------
Input size (MB): 0.03
Forward/backward pass size (MB): 0.69
Params size (MB): 9.40
Estimated Total Size (MB): 10.12
----------------------------------------------------------------